…
 nn.ReLU(),\n            nn.Linear(128, 1),\n        )\n\n    def forward(self, input_data):\n        x = self.flatten(input_data)\n        logits = self.linear(x)\n        predictions = torch.sigmoid(logits)\n        return predictions\n        # return x\n\n\nif __name__ == \"__main__\":\n    model2 = MLPNetwork()\n    summary(model2.to(device), (1, 64, 79))\n\n----------------------------------------------------------------\n        Layer (type)               Output Shape         Param #\n================================================================\n           Flatten-1                 [-1, 5056]               0\n            Linear-2                  [-1, 256]       1,294,592\n              ReLU-3                  [-1, 256]               0\n            Linear-4                  [-1, 128]          32,896\n              ReLU-5                  [-1, 128]               0\n            Linear-6                    [-1, 1]             129\n================================================================\nTotal params: 1,327,617\nTrainable params: 1,327,617\nNon-trainable params: 0\n----------------------------------------------------------------\nInput size (MB): 0.02\nForward/backward pass size (MB): 0.04\nParams size (MB): 5.06\nEstimated Total Size (MB): 5.13\n----------------------------------------------------------------\n\n
…
